ML&DL/model/mlp.pth (torch, 2096 bytes, 3 tensors)

linear1.weight f4 [4, 2]
0	0xc0533e67	-3.3006837
1	0xc07b6280	-3.927887
2	0x3d187f87	0.037230995
3	0xc0853a62	-4.163377
4	0xc003c734	-2.0590334
5	0x4024fde6	2.5779967
6	0xc0430717	-3.0473077
7	0x407f416d	3.9883683

linear1.bias f4 [4]
0	0xbdad76d1	-0.08469928
1	0xbd1890a3	-0.03724731
2	0x3be51891	0.006991454
3	0x3e4abbd9	0.1979822

linear2.weight f4 [1, 4]
0	0x404446c3	3.066819
1	0xc0890a7d	-4.2825303
2	0xbfc5863b	-1.5431589
3	0xbfe8e584	-1.8195043
